…
############ frequency dataset ############
train_f data size:(62436, 1, 128, 128)
val_f data size:(8025, 1, 128, 128)
test_f N data size:(17343, 1, 128, 128)
test_f S data size:(2723, 1, 128, 128)
test_f V data size:(6307, 1, 128, 128)
test_f F data size:(721, 1, 128, 128)
test_f Q data size:(13, 1, 128, 128)
load data success!!!
/data/haenim/lab/ndf_48/experiments/ecg/network.py:25: UserWarning: nn.init.xavier_uniform is now deprecated in favor of nn.init.xavier_uniform_.
  torch.nn.init.xavier_uniform(mod.weight)
Generator(
  (signal_encoder): Signal_Encoder(
    (main): Sequential(
      (0): Conv1d(1, 48, kernel_size=(4,), stride=(2,), padding=(1,), bias=False)
      (1): LeakyReLU(negative_slope=0.2, inplace=True)
      (2): Conv1d(48, 96, kernel_size=(4,), stride=(2,), padding=(1,), bias=False)
      (3): BatchNorm1d(96, eps=1e-05, momentum=0.1, affine=True, track_running_stats=True)
      (4): LeakyReLU(negative_slope=0.2, inplace=True)
      (5): Conv1d(96, 192, kernel_size=(4,), stride=(2,), padding=(1,), bias=False)
      (6): BatchNorm1d(192, eps=1e-05, momentum=0.1, affine=True, track_running_stats=True)
      (7): LeakyReLU(negative_slope=0.2, inplace=True)
      (8): Conv1d(192, 384, kernel_size=(4,), stride=(2,), padding=(1,), bias=False)
      (9): BatchNorm1d(384, eps=1e-05, momentum=0.1, affine=True, track_running_stats=True)
      (10): LeakyReLU(negative_slope=0.2, inplace=True)
      (11): Conv1d(384, 768, kernel_size=(4,), stride=(2,), padding=(1,), bias=False)
      (12): BatchNorm1d(768, eps=1e-05, momentum=0.1, affine=True, track_running_stats=True)
      (13): LeakyReLU(negative_slope=0.2, inplace=True)
      (14): Conv1d(768, 50, kernel_size=(10,), stride=(1,), bias=False)
    )
  )
  (freq_2d_encoder): Frequency_2D_Encoder(
    (main): Sequential(
      (0): Conv2d(1, 48, kernel_size=(4, 4), stride=(2, 2), padding=(1, 1), bias=False)
      (1): LeakyReLU(negative_slope=0.2, inplace=True)
      (2): Conv2d(48, 96, kernel_size=(4, 4), stride=(2, 2), padding=(1, 1), bias=False)
      (3): BatchNorm2d(96, eps=1e-05, momentum=0.1, affine=True, track_running_stats=True)
      (4): LeakyReLU(negative_slope=0.2, inplace=True)
      (5): Conv2d(96, 192, kernel_size=(4, 4), stride=(2, 2), padding=(1, 1), bias=False)
      (6): BatchNorm2d(192, eps=1e-05, momentum=0.1, affine=True, track_running_stats=True)
      (7): LeakyReLU(negative_slope=0.2, inplace=True)
      (8): Conv2d(192, 384, kernel_size=(4, 4), stride=(2, 2), padding=(1, 1), bias=False)
      (9): BatchNorm2d(384, eps=1e-05, momentum=0.1, affine=True, track_running_stats=True)
      (10): LeakyReLU(negative_slope=0.2, inplace=True)
      (11): Conv2d(384, 768, kernel_size=(4, 4), stride=(1, 1), padding=(1, 1), bias=False)
      (12): BatchNorm2d(768, eps=1e-05, momentum=0.1, affine=True, track_running_stats=True)
      (13): LeakyReLU(negative_slope=0.2, inplace=True)
      (14): Conv2d(768, 50, kernel_size=(7, 7), stride=(1, 1), bias=False)
    )
  )
  (linear_s): Linear(in_features=1, out_features=128, bias=True)
  (linear_f): Linear(in_features=1, out_features=128, bias=True)
  (linear1): Linear(in_features=100, out_features=50, bias=True)
  (linear2): Linear(in_features=1, out_features=64, bias=True)
  (linear3): Linear(in_features=64, out_features=128, bias=True)
  (tf): Multimodal_Transformer(
    (transformer_encoder): TransformerEncoder(
      (layers): ModuleList(
        (0): TransformerEncoderLayer(
          (self_attn): MultiheadAttention(
            (out_proj): NonDynamicallyQuantizableLinear(in_features=50, out_features=50, bias=True)
          )
          (linear1): Linear(in_features=50, out_features=512, bias=True)
          (dropout): Dropout(p=0.0, inplace=False)
          (linear2): Linear(in_features=512, out_features=50, bias=True)
          (norm1): LayerNorm((50,), eps=1e-05, elementwise_affine=True)
          (norm2): LayerNorm((50,), eps=1e-05, elementwise_affine=True)
          (dropout1): Dropout(p=0.0, inplace=False)
          (dropout2): Dropout(p=0.0, inplace=False)
        )
        (1): TransformerEncoderLayer(
          (self_attn): MultiheadAttention(
            (out_proj): NonDynamicallyQuantizableLinear(in_features=50, out_features=50, bias=True)
          )
          (linear1): Linear(in_features=50, out_features=512, bias=True)
          (dropout): Dropout(p=0.0, inplace=False)
          (linear2): Linear(in_features=512, out_features=50, bias=True)
          (norm1): LayerNorm((50,), eps=1e-05, elementwise_affine=True)
          (norm2): LayerNorm((50,), eps=1e-05, elementwise_affine=True)
          (dropout1): Dropout(p=0.0, inplace=False)
          (dropout2): Dropout(p=0.0, inplace=False)
        )
        (2): TransformerEncoderLayer(
          (self_attn): MultiheadAttention(
            (out_proj): NonDynamicallyQuantizableLinear(in_features=50, out_features=50, bias=True)
          )
          (linear1): Linear(in_features=50, out_features=512, bias=True)
          (dropout): Dropout(p=0.0, inplace=False)
          (linear2): Linear(in_features=512, out_features=50, bias=True)
          (norm1): LayerNorm((50,), eps=1e-05, elementwise_affine=True)
          (norm2): LayerNorm((50,), eps=1e-05, elementwise_affine=True)
          (dropout1): Dropout(p=0.0, inplace=False)
          (dropout2): Dropout(p=0.0, inplace=False)
        )
      )
    )
  )
  (signal_decoder): Signal_Decoder(
    (main): Sequential(
      (0): ConvTranspose1d(50, 768, kernel_size=(10,), stride=(1,), bias=False)
      (1): BatchNorm1d(768, eps=1e-05, momentum=0.1, affine=True, track_running_stats=True)
      (2): ReLU(inplace=True)
      (3): ConvTranspose1d(768, 384, kernel_size=(4,), stride=(2,), padding=(1,), bias=False)
      (4): BatchNorm1d(384, eps=1e-05, momentum=0.1, affine=True, track_running_stats=True)
      (5): ReLU(inplace=True)
      (6): ConvTranspose1d(384, 192, kernel_size=(4,), stride=(2,), padding=(1,), bias=False)
      (7): BatchNorm1d(192, eps=1e-05, momentum=0.1, affine=True, track_running_stats=True)
      (8): ReLU(inplace=True)
      (9): ConvTranspose1d(192, 96, kernel_size=(4,), stride=(2,), padding=(1,), bias=False)
      (10): BatchNorm1d(96, eps=1e-05, momentum=0.1, affine=True, track_running_stats=True)
      (11): ReLU(inplace=True)
      (12): ConvTranspose1d(96, 48, kernel_size=(4,), stride=(2,), padding=(1,), bias=False)
      (13): BatchNorm1d(48, eps=1e-05, momentum=0.1, affine=True, track_running_stats=True)
      (14): ReLU(inplace=True)
      (15): ConvTranspose1d(48, 1, kernel_size=(4,), stride=(2,), padding=(1,), bias=False)
      (16): Tanh()
    )
  )
)
Total number of parameters: 12260304
Discriminator(
  (features_s): Sequential(
    (0): Conv1d(1, 48, kernel_size=(4,), stride=(2,), padding=(1,), bias=False)
    (1): LeakyReLU(negative_slope=0.2, inplace=True)
    (2): Conv1d(48, 96, kernel_size=(4,), stride=(2,), padding=(1,), bias=False)
    (3): BatchNorm1d(96, eps=1e-05, momentum=0.1, affine=True, track_running_stats=True)
    (4): LeakyReLU(negative_slope=0.2, inplace=True)
    (5): Conv1d(96, 192, kernel_size=(4,), stride=(2,), padding=(1,), bias=False)
    (6): BatchNorm1d(192, eps=1e-05, momentum=0.1, affine=True, track_running_stats=True)
    (7): LeakyReLU(negative_slope=0.2, inplace=True)
    (8): Conv1d(192, 384, kernel_size=(4,), stride=(2,), padding=(1,), bias=False)
    (9): BatchNorm1d(384, eps=1e-05, momentum=0.1, affine=True, track_running_stats=True)
    (10): LeakyReLU(negative_slope=0.2, inplace=True)
    (11): Conv1d(384, 768, kernel_size=(4,), stride=(2,), padding=(1,), bias=False)
    (12): BatchNorm1d(768, eps=1e-05, momentum=0.1, affine=True, track_running_stats=True)
    (13): LeakyReLU(negative_slope=0.2, inplace=True)
  )
  (classifier_s): Sequential(
    (0): Conv1d(768, 1, kernel_size=(10,), stride=(1,), bias=False)
    (Sigmoid): Sigmoid()
  )
)
Total number of parameters: 1577472

model_device: cuda:0 

################  Train  ##################
Train model.
Epoch: [1] [ 100/1951] D_loss_s(r/f): 0.001991/0.000831, D_loss_f(r/f): 0.001991/0.000831, D_loss(s/f): 0.002822/0.002822, G_loss(s/f): 0.445920/0.445920
Epoch: [1] [ 200/1951] D_loss_s(r/f): 0.000501/0.000376, D_loss_f(r/f): 0.000501/0.000376, D_loss(s/f): 0.000877/0.000877, G_loss(s/f): 0.463826/0.463826
…
