…
############ frequency dataset ############
train_f data size:(62436, 1, 128, 128)
val_f data size:(8025, 1, 128, 128)
test_f N data size:(17343, 1, 128, 128)
test_f S data size:(2723, 1, 128, 128)
test_f V data size:(6307, 1, 128, 128)
test_f F data size:(721, 1, 128, 128)
test_f Q data size:(13, 1, 128, 128)
load data success!!!
/data/haenim/lab/multi/experiments/ecg/network.py:25: UserWarning: nn.init.xavier_uniform is now deprecated in favor of nn.init.xavier_uniform_.
  torch.nn.init.xavier_uniform(mod.weight)
Generator(
  (signal_encoder): Signal_Encoder(
    (main): Sequential(
      (0): Conv1d(1, 32, kernel_size=(4,), stride=(2,), padding=(1,), bias=False)
      (1): LeakyReLU(negative_slope=0.2, inplace=True)
      (2): Conv1d(32, 64, kernel_size=(4,), stride=(2,), padding=(1,), bias=False)
      (3): BatchNorm1d(64, eps=1e-05, momentum=0.1, affine=True, track_running_stats=True)
      (4): LeakyReLU(negative_slope=0.2, inplace=True)
      (5): Conv1d(64, 128, kernel_size=(4,), stride=(2,), padding=(1,), bias=False)
      (6): BatchNorm1d(128, eps=1e-05, momentum=0.1, affine=True, track_running_stats=True)
      (7): LeakyReLU(negative_slope=0.2, inplace=True)
      (8): Conv1d(128, 256, kernel_size=(4,), stride=(2,), padding=(1,), bias=False)
      (9): BatchNorm1d(256, eps=1e-05, momentum=0.1, affine=True, track_running_stats=True)
      (10): LeakyReLU(negative_slope=0.2, inplace=True)
      (11): Conv1d(256, 512, kernel_size=(4,), stride=(2,), padding=(1,), bias=False)
      (12): BatchNorm1d(512, eps=1e-05, momentum=0.1, affine=True, track_running_stats=True)
      (13): LeakyReLU(negative_slope=0.2, inplace=True)
      (14): Conv1d(512, 50, kernel_size=(10,), stride=(1,), bias=False)
    )
  )
  (freq_2d_encoder): Frequency_2D_Encoder(
    (main): Sequential(
      (0): Conv2d(1, 54, kernel_size=(4, 4), stride=(2, 2), padding=(1, 1), bias=False)
      (1): LeakyReLU(negative_slope=0.2, inplace=True)
      (2): Conv2d(54, 108, kernel_size=(4, 4), stride=(2, 2), padding=(1, 1), bias=False)
      (3): BatchNorm2d(108, eps=1e-05, momentum=0.1, affine=True, track_running_stats=True)
      (4): LeakyReLU(negative_slope=0.2, inplace=True)
      (5): Conv2d(108, 216, kernel_size=(4, 4), stride=(2, 2), padding=(1, 1), bias=False)
      (6): BatchNorm2d(216, eps=1e-05, momentum=0.1, affine=True, track_running_stats=True)
      (7): LeakyReLU(negative_slope=0.2, inplace=True)
      (8): Conv2d(216, 432, kernel_size=(4, 4), stride=(2, 2), padding=(1, 1), bias=False)
      (9): BatchNorm2d(432, eps=1e-05, momentum=0.1, affine=True, track_running_stats=True)
      (10): LeakyReLU(negative_slope=0.2, inplace=True)
      (11): Conv2d(432, 864, kernel_size=(4, 4), stride=(1, 1), padding=(1, 1), bias=False)
      (12): BatchNorm2d(864, eps=1e-05, momentum=0.1, affine=True, track_running_stats=True)
      (13): LeakyReLU(negative_slope=0.2, inplace=True)
      (14): Conv2d(864, 50, kernel_size=(7, 7), stride=(1, 1), bias=False)
    )
  )
  (linear_s): Linear(in_features=1, out_features=128, bias=True)
  (linear_f): Linear(in_features=1, out_features=128, bias=True)
  (linear1): Linear(in_features=100, out_features=50, bias=True)
  (linear2): Linear(in_features=1, out_features=64, bias=True)
  (linear3): Linear(in_features=64, out_features=128, bias=True)
  (tf): Multimodal_Transformer(
    (encoder_layers1): TransformerEncoderLayer(
      (self_attn): MultiheadAttention(
        (out_proj): NonDynamicallyQuantizableLinear(in_features=50, out_features=50, bias=True)
      )
      (linear1): Linear(in_features=50, out_features=512, bias=True)
      (dropout): Dropout(p=0.0, inplace=False)
      (linear2): Linear(in_features=512, out_features=50, bias=True)
      (norm1): LayerNorm((128, 50), eps=1e-05, elementwise_affine=True)
      (norm2): LayerNorm((128, 50), eps=1e-05, elementwise_affine=True)
      (dropout1): Dropout(p=0.0, inplace=False)
      (dropout2): Dropout(p=0.0, inplace=False)
    )
    (encoder_layers2): TransformerEncoderLayer(
      (self_attn): MultiheadAttention(
        (out_proj): NonDynamicallyQuantizableLinear(in_features=50, out_features=50, bias=True)
      )
      (linear1): Linear(in_features=50, out_features=512, bias=True)
      (dropout): Dropout(p=0.0, inplace=False)
      (linear2): Linear(in_features=512, out_features=50, bias=True)
      (norm1): LayerNorm((128, 50), eps=1e-05, elementwise_affine=True)
      (norm2): LayerNorm((128, 50), eps=1e-05, elementwise_affine=True)
      (dropout1): Dropout(p=0.0, inplace=False)
      (dropout2): Dropout(p=0.0, inplace=False)
    )
    (encoder_layers3): TransformerEncoderLayer(
      (self_attn): MultiheadAttention(
        (out_proj): NonDynamicallyQuantizableLinear(in_features=50, out_features=50, bias=True)
      )
      (linear1): Linear(in_features=50, out_features=512, bias=True)
      (dropout): Dropout(p=0.0, inplace=False)
      (linear2): Linear(in_features=512, out_features=50, bias=True)
      (norm1): LayerNorm((128, 50), eps=1e-05, elementwise_affine=True)
      (norm2): LayerNorm((128, 50), eps=1e-05, elementwise_affine=True)
      (dropout1): Dropout(p=0.0, inplace=False)
      (dropout2): Dropout(p=0.0, inplace=False)
    )
  )
  (signal_decoder): Signal_Decoder(
    (main): Sequential(
      (0): ConvTranspose1d(50, 512, kernel_size=(10,), stride=(1,), bias=False)
      (1): BatchNorm1d(512, eps=1e-05, momentum=0.1, affine=True, track_running_stats=True)
      (2): ReLU(inplace=True)
      (3): ConvTranspose1d(512, 256, kernel_size=(4,), stride=(2,), padding=(1,), bias=False)
      (4): BatchNorm1d(256, eps=1e-05, momentum=0.1, affine=True, track_running_stats=True)
      (5): ReLU(inplace=True)
      (6): ConvTranspose1d(256, 128, kernel_size=(4,), stride=(2,), padding=(1,), bias=False)
      (7): BatchNorm1d(128, eps=1e-05, momentum=0.1, affine=True, track_running_stats=True)
      (8): ReLU(inplace=True)
      (9): ConvTranspose1d(128, 64, kernel_size=(4,), stride=(2,), padding=(1,), bias=False)
      (10): BatchNorm1d(64, eps=1e-05, momentum=0.1, affine=True, track_running_stats=True)
      (11): ReLU(inplace=True)
      (12): ConvTranspose1d(64, 32, kernel_size=(4,), stride=(2,), padding=(1,), bias=False)
      (13): BatchNorm1d(32, eps=1e-05, momentum=0.1, affine=True, track_running_stats=True)
      (14): ReLU(inplace=True)
      (15): ConvTranspose1d(32, 1, kernel_size=(4,), stride=(2,), padding=(1,), bias=False)
      (16): Tanh()
    )
  )
)
Total number of parameters: 12237920
Discriminator(
  (features_s): Sequential(
    (0): Conv1d(1, 32, kernel_size=(4,), stride=(2,), padding=(1,), bias=False)
    (1): LeakyReLU(negative_slope=0.2, inplace=True)
    (2): Conv1d(32, 64, kernel_size=(4,), stride=(2,), padding=(1,), bias=False)
    (3): BatchNorm1d(64, eps=1e-05, momentum=0.1, affine=True, track_running_stats=True)
    (4): LeakyReLU(negative_slope=0.2, inplace=True)
    (5): Conv1d(64, 128, kernel_size=(4,), stride=(2,), padding=(1,), bias=False)
    (6): BatchNorm1d(128, eps=1e-05, momentum=0.1, affine=True, track_running_stats=True)
    (7): LeakyReLU(negative_slope=0.2, inplace=True)
    (8): Conv1d(128, 256, kernel_size=(4,), stride=(2,), padding=(1,), bias=False)
    (9): BatchNorm1d(256, eps=1e-05, momentum=0.1, affine=True, track_running_stats=True)
    (10): LeakyReLU(negative_slope=0.2, inplace=True)
    (11): Conv1d(256, 512, kernel_size=(4,), stride=(2,), padding=(1,), bias=False)
    (12): BatchNorm1d(512, eps=1e-05, momentum=0.1, affine=True, track_running_stats=True)
    (13): LeakyReLU(negative_slope=0.2, inplace=True)
  )
  (classifier_s): Sequential(
    (0): Conv1d(512, 1, kernel_size=(10,), stride=(1,), bias=False)
    (Sigmoid): Sigmoid()
  )
)
Total number of parameters: 703488

model_device: cuda:0 

################  Train  ##################
Train model.
Epoch: [1] [ 100/1951] D_loss_s(r/f): 0.004762/0.008271, D_loss_f(r/f): 0.004762/0.008271, D_loss(s/f): 0.013033/0.013033, G_loss(s/f): 0.438063/0.438063
Epoch: [1] [ 200/1951] D_loss_s(r/f): 0.003791/0.005046, D_loss_f(r/f): 0.003791/0.005046, D_loss(s/f): 0.008837/0.008837, G_loss(s/f): 0.476455/0.476455
…
